.dart_tool/chrome-device/Default/optimization_guide_prediction_model_downloads/cf6a6ba3-d304-432c-94e0-597e48cdbf9a/model.tflite (tflite, 410364 bytes, 166 tensors)

context_transformer_0/bottleneck_input/norm/add f4 [32]
0	0xbe4f07b4	-0.20217782
1	0xbdd03a1a	-0.10167332
2	0xbd1497ce	-0.036277585
3	0xbd74c7b0	-0.05976075
4	0xbd009ace	-0.031397633
5	0x3d9d32b4	0.076756865
6	0xbd15768a	-0.03649
7	0x3d4fc112	0.050721236
8	0x3d93bec9	0.07214124
9	0xbddece83	-0.10879233
10	0xbe03cc6a	-0.12870947
11	0xbcd16a21	-0.025563302
12	0x3c956159	0.018234896
13	0xbc835614	-0.016032256
14	0x3e0c800c	0.13720721
15	0x3d36068e	0.044439845
16	0x3e05c48f	0.13063262
17	0xbd47e218	-0.048799604
18	0x3d697265	0.05699386
19	0x3d9ecc2d	0.07753787
20	0xbdacf92b	-0.084459625
21	0xbd53352c	-0.05156438
22	0xbd61999c	-0.055078134
23	0xbdaca6f1	-0.08430279
24	0x3d0c08d8	0.03418812
25	0x3da4a2a4	0.08038834
26	0xbc3cacc9	-0.011515805
27	0xbd817fd9	-0.06323213
28	0x3d7b141c	0.061298475
29	0x3c14b862	0.009077163
30	0x3d883dc8	0.06652409
31	0xbcd4aa4a	-0.025960106

context_transformer_1/bottleneck_input/norm/add f4 [32]
0	0xbc682e96	-0.014171263
1	0xbd918127	-0.07104712
2	0xbe0657e2	-0.13119462
3	0xbe590a01	-0.21195222
4	0xbd360868	-0.04444161
5	0xbe80e290	-0.25172853
6	0x3d535e8c	0.05160384
7	0xbdc25bc0	-0.09490156
8	0x3da88139	0.08227772
9	0x3d3156b2	0.04329557
10	0xbcb1b901	-0.021694662
11	0x3e0c638d	0.1370985
12	0x3d94a372	0.07257737
13	0xbe425f84	-0.18981749
14	0xbd771240	-0.06032014
15	0x3e3a7a94	0.18210822
16	0x3d2b3b16	0.041804396
17	0x3d13e258	0.03610453
18	0xbdc9f92e	-0.098619804
19	0xbe056d5a	-0.13029996
20	0x3d1a83e5	0.03772344
21	0x3c812f7a	0.015769709
22	0x3e914008	0.28369164
23	0x3db5be8c	0.088742346
24	0x3dbd20a4	0.09234741
25	0xbe5330aa	-0.20624033
26	0xbe335c3c	-0.17515653
27	0xbd9a3976	-0.07530491
28	0x3cfae22f	0.03062543
29	0xbbcb0966	-0.0061961887
30	0xbd9167e4	-0.07099894
31	0xbe41fb40	-0.189435

mention_transformer_0/bottleneck_input/norm/add f4 [32]
0	0x3cc3cd70	0.023901671
1	0xbcc9eeea	-0.024650056
2	0xbe3704a3	-0.17872863
3	0xbd98642f	-0.074409835
4	0x3dc6a30a	0.09699066
5	0x3e7d6b8e	0.2474806
6	0x3cde140d	0.02710917
7	0x3d6ddc5c	0.05807148
8	0x3c224360	0.009903759
9	0x3e011171	0.1260431
10	0x3e4cc08e	0.19995329
11	0x3e59f266	0.21283874
12	0xbc07ea24	-0.00829557
13	0x3d6e7e2e	0.058225803
14	0x3db58d94	0.088648945
15	0xbca0dce7	-0.019636584
16	0x3e22c952	0.1589711
17	0x3e1888d6	0.14895949
18	0xbe3adbf5	-0.1824797
19	0xbdfdeeaa	-0.12399037
20	0x3d0e6c2e	0.034771137
21	0xbeae5f76	-0.34057206
22	0xbdf80470	-0.121102214
23	0xbd5869d7	-0.05283531
24	0xbe204370	-0.15650725
25	0x3d065f91	0.032805983
26	0xbd9b6cf0	-0.075891376
27	0x3d92f92d	0.07176433
28	0x3d7cbdc3	0.06170441
29	0x3dd2dab2	0.10295619
30	0x3e9ccef6	0.3062665
31	0xbdb84d2a	-0.08999093

mention_transformer_1/bottleneck_input/norm/add f4 [32]
0	0x3d5a464f	0.053289708
1	0xbe580796	-0.21096644
2	0x3e1b9477	0.15193354
3	0xbeb89de9	-0.36057976
4	0xbddf86c6	-0.10914378
5	0xbd97958c	-0.07401571
6	0x3e16c079	0.1472186
7	0xbe81bae2	-0.25337893
8	0xbdb76bd9	-0.08956117
9	0x3e859174	0.26087534
10	0x3c71ccac	0.01475827
11	0x3cefcc0e	0.029272106
12	0x3d053e1c	0.032529935
13	0x3e1ff79c	0.15621799
14	0xbe566206	-0.2093583
15	0x3dae1de6	0.085017964
16	0x3e81df34	0.25365603
17	0xbe1605a6	-0.14650592
18	0xbd643021	-0.05570996
19	0xbaec9580	-0.0018049926
20	0x3e901e1a	0.28147966
21	0xbe3f92c2	-0.18708327
22	0xbba3ce34	-0.0049989466
23	0xbce05a20	-0.027386725
24	0x3e7e4f88	0.24835026
25	0xbe376676	-0.1791018
26	0x3dcb5494	0.09928241
27	0x3e145314	0.14484817
28	0xbd57bd23	-0.05267061
29	0x3cfd2ffc	0.03090667
30	0x3ed9d34d	0.42544022
31	0xbec5a3a6	-0.38601416

context_transformer_0/attention/value/add;context_transformer_0/attention/value/einsum/Einsum;context_transformer_0/attention/value/add/ReadVariableOp/resource f4 [32]
0	0xbd5c9e5b	-0.053861957
1	0xbc337ec6	-0.010955518
2	0x3d8e03bc	0.06934306
3	0x3d7550db	0.059891563
4	0xbca3ac5a	-0.019979645
5	0xbcba4b25	-0.02274091
6	0x3da5c971	0.080950625
7	0xbd8e766c	-0.06956181
8	0xbcb853fd	-0.022500986
9	0x3d02e228	0.03195396
10	0x3d92cc5e	0.07167886
11	0x3d7bd13f	0.06147885
12	0xbd8e7db5	-0.069575705
13	0xbda809f7	-0.08205026
14	0x3d061a17	0.032739725
15	0xbd91db9b	-0.071219645
16	0xbd935dcb	-0.07195624
17	0xbd051519	-0.032490823
18	0xbd9a7ac3	-0.07542946
19	0xbce9153e	-0.028452512
20	0x3c80264d	0.015643263
21	0xbd7a7654	-0.061148003
22	0x3da383c8	0.0798412
23	0xbe424fca	-0.1897575
24	0xbc01e66d	-0.007928473
25	0xbd3ba52e	-0.045811825
26	0x3d847592	0.06467737
27	0xbd6206a2	-0.055182107
28	0xbd962543	-0.07331326
29	0xbbeac857	-0.0071649957
30	0xbdb76fa2	-0.08956839
31	0x3c80f2b3	0.015740728

context_transformer_0/bottleneck_input/norm/mul f4 [32, 32]
0	0x3dac9aea	0.08427985
1	0xbc88802d	-0.016662681
2	0x3da3e59f	0.08002781
3	0x3e00fbc1	0.12596036
4	0xbe57fcb5	-0.21092494
5	0x3e34d77e	0.17660329
6	0x3d749d63	0.05972041
7	0xbceceb44	-0.028920777
8	0x3dbffbd2	0.09374203
9	0xbd052730	-0.032508075
10	0xbbc7f9fd	-0.006102799
11	0x3daa9c30	0.08330572
12	0x3da790b0	0.08181894
13	0x3df5a99e	0.119952425
14	0xbd5750e3	-0.052567374
15	0x3e31f014	0.17376739
16	0x3cae83f2	0.02130315
17	0xbd8471c0	-0.064670086
18	0x3db4c2e3	0.08826234
19	0xbda410b1	-0.08010996
20	0x3e2e4aaa	0.1702067
21	0x3c0498ac	0.00809304
22	0xbde45e6d	-0.11150823
23	0xbe766c67	-0.2406479
24	0x3e916e1c	0.2840432
25	0xbce63c46	-0.028104912
26	0x3d4106cc	0.047125623
27	0xbd290723	-0.04126657
28	0xbdbb58c9	-0.09147794
29	0x3e495ee1	0.196651
30	0xbc7cb364	-0.015423629
31	0x3e63ae54	0.2223447
32	0x3c53d3cd	0.012928915
33	0xbd2df763	-0.042472254
34	0xbed56c6e	-0.41684288
35	0xbe74814e	-0.23877451
36	0xbe01c8dd	-0.1267428
37	0x3e316655	0.17324193
38	0x3e89ca56	0.26912183
39	0xbd3527c0	-0.04422736
40	0x3dc70526	0.09717779
41	0xbc562c08	-0.013072021
42	0xbdbfb05c	-0.0935981
43	0xbd574879	-0.05255935
44	0x3e0f61b6	0.14002118
45	0x3ebdfee8	0.3710854
46	0x3d2cb4aa	0.042164482
47	0xbee8c27a	-0.45460874
48	0x3aa2cd44	0.0012420793
49	0xbe20961f	-0.15682267
50	0xbe037380	-0.12837029
51	0xbe8e39be	-0.2777843
52	0xbed3be43	-0.41356096
53	0xba114e24	-0.0005542955
54	0xbee01e79	-0.4377325
55	0x3cba2e95	0.02272729
56	0x3e6888b1	0.22708394
57	0xbe161671	-0.14656998
58	0x3dfd5148	0.12369019
59	0xbe6cda42	-0.23130134
60	0x3df4537c	0.11929986
61	0x3e6f6fea	0.23382536
62	0x3d95f770	0.073225856
63	0xbb9fe6b3	-0.0048797964
64	0x3e21c60d	0.15798207
65	0xbc04ac1b	-0.008097674
66	0xbe4a442f	-0.19752572
67	0xbd9ddc50	-0.07708037
68	0x3e0a18ee	0.13486072
69	0x3e820e81	0.2540169
70	0x3e22e600	0.1590805
71	0x3d86fca1	0.06591154
72	0xbd8ec1fe	-0.06970595
73	0x3e8a91b9	0.27064303
74	0xbdf01318	-0.11722392
75	0xbdc04be9	-0.09389479
76	0x3e8db60a	0.27677947
77	0x3e6ae160	0.22937536
78	0x3e0a88e4	0.13528782
79	0x3d8a5790	0.067549825
80	0x3ab71148	0.0013966942
81	0xbec552bc	-0.38539684
82	0xbc30783a	-0.010770852
83	0xbe2bb015	-0.16766389
84	0xbe8c5f10	-0.27416277
85	0x3db53333	0.08847656
86	0x3d6dbeaf	0.05804318
87	0xbe62fbc4	-0.22166353
88	0x3df53aeb	0.11974128
89	0x3ef04a81	0.46931842
90	0x3bd7356c	0.0065676477
91	0xbd8836a8	-0.0665105
92	0xba19f3d8	-0.00058728224
93	0xbe5796dc	-0.21053642
94	0x3db2b666	0.08726196
95	0x3e6fcea3	0.2341867
96	0x3df6c40e	0.12049113
97	0xbe8e8618	-0.2783668
98	0x3e3c630f	0.18397163
99	0xbdb3a58d	-0.08771811
100	0xba09d085	-0.0005257207
101	0xbdab3be1	-0.0836103
102	0xbd93ce95	-0.07217137
103	0xbe12fee4	-0.14355046
104	0x3d95f509	0.07322127
105	0x3e6d6c99	0.23185958
106	0xbdc8c432	-0.09803046
107	0xbed4b8b0	-0.41547155
108	0xbdf636ac	-0.120221466
109	0x3e55be19	0.20873298
110	0xbeaa474e	-0.33257526
111	0x3db96511	0.0905248
112	0xbdedc7ee	-0.11610399
113	0xbe89b2a2	-0.268941
114	0x3b1533ea	0.002276654
115	0x3d085e29	0.033292923
116	0xbe0ec2ba	-0.1394147
117	0x3ed2a6bc	0.41142833
118	0x3e254e6b	0.16143195
119	0x3eb5d830	0.355165
120	0x3db004ba	0.085946515
121	0x3d506741	0.05087972
122	0x3e4ad0b5	0.19806178
123	0x3e860ec1	0.2618313
124	0xbd2d8af3	-0.04236884
125	0x3de95fb2	0.113952056
126	0xbcaf43e2	-0.021394674
127	0xbe91c6b4	-0.2847191
128	0x3d5df7e3	0.05419148
129	0x3da0a167	0.07843285
130	0xbe4ce0ec	-0.20007676
131	0x3d7d683d	0.061866987
132	0x3e8ded84	0.27720273
133	0xbd824736	-0.06361239
134	0xbd0a4b16	-0.033763014
135	0x3db2ec76	0.087365076
136	0x3e83d39f	0.25747392
137	0xbdd3af40	-0.10336161
138	0x3e88bf1a	0.267083
139	0x3ebc64ac	0.36795557
140	0xbe0f7ee1	-0.14013244
141	0xbd189c3d	-0.037258375
142	0x3b5053f9	0.0031788333
143	0x3e75e399	0.24012603
144	0x3dfc877d	0.1233053
145	0x3dbc7bd7	0.09203308
146	0xbc311872	-0.010809051
147	0x3e034adf	0.1282153
148	0x3d803322	0.06259753
149	0xbda7af55	-0.08187739
150	0x3de05edb	0.10955592
151	0xbe6bf90c	-0.23044223
152	0x3e2dcdec	0.16973084
153	0x3e1aa6c4	0.15102679
154	0x3dad4e4e	0.08462201
155	0x3e1c44af	0.15260576
156	0xbe47ee44	-0.19524485
157	0x3c05ccd6	0.0081665125
158	0xbd0c7c97	-0.034298506
159	0xbbc7aa6d	-0.0060933144
160	0xbe478b68	-0.19486773
161	0x3f33db34	0.7025635
162	0x3ea78932	0.3272186
163	0x3e5eef28	0.21770918
164	0xbd2b2a33	-0.04178829
165	0xbeeb9446	-0.4601156
166	0xbf2f6bb2	-0.68523705
167	0x3e02426b	0.12720649
168	0xbd5d1b2e	-0.053981
169	0xbe22c984	-0.15897185
170	0xbe5ca098	-0.21545637
171	0x3f0f15d7	0.558927
172	0x3e5d181d	0.2159123
173	0xbdab9eed	-0.08379922
174	0x3df696ef	0.12040507
175	0xbe699f53	-0.22814684
176	0x3e0befea	0.13665739
177	0xbd2374e8	-0.039906412
178	0x3cb90359	0.022584604
179	0xbdb8eeb5	-0.09029905
180	0xbd151191	-0.036393706
181	0xbeea6223	-0.45777997
182	0x3eb5a3f0	0.35476637
183	0xbf090d56	-0.53535974
184	0xbec990c4	-0.3936826
185	0x3d55f623	0.052236687
186	0x3e483a5d	0.19553514
187	0x3e996b2c	0.29964578
188	0x3ed89782	0.4230309
189	0xbb55fc2d	-0.003265153
190	0xbd910b95	-0.07082287
191	0x3e7b483b	0.24539272
192	0x3d6180ad	0.055054355
193	0x3e190eae	0.14947006
194	0xbde42333	-0.11139526
195	0x3e0eacab	0.13933055
196	0x3c3de726	0.011590755
197	0xbdbcc13f	-0.09216546
198	0xbaa806c0	-0.0012819394
199	0xbdb5d35d	-0.08878205
200	0x3e9a1db6	0.30100793
201	0x3b46a2ec	0.0030309511
202	0xbcb46efb	-0.022025576
203	0xbdb0b3aa	-0.08628018
204	0xbe26cd3d	-0.1628923
205	0xbe7f155a	-0.24910489
206	0x3e220b1f	0.15824555
207	0x3e91676f	0.28399226
208	0xbe37a7a1	-0.17935039
209	0x3e779a6b	0.2418
210	0x3dd8a543	0.10578396
211	0x3e678d4a	0.22612491
212	0xbc243ed6	-0.010024747
213	0xbe01d792	-0.1267989
214	0x3d578620	0.052618146
215	0xbc4b2595	-0.012399097
216	0xbe077571	-0.13228394
217	0xbdd9aaf1	-0.106283076
218	0x3ca0ed59	0.019644426
219	0x3e6cd374	0.23127538
220	0x3d677e89	0.056517158
221	0x3cea8942	0.028629903
222	0x3e08f468	0.13374484
223	0x3e529b97	0.20567165
224	0x3e5bbe6b	0.21459357
225	0xbd028c79	-0.031872246
226	0xbebf11ad	-0.37318173
227	0x3e146e07	0.14495097
228	0xbd596576	-0.053075276
229	0xbe19b1c9	-0.15009226
230	0xbdb74c9e	-0.089501604
231	0xbe49f65f	-0.1972289
232	0x3cfba3b5	0.03071771
233	0x3d9540da	0.0728776
234	0xbee99365	-0.45620266
235	0x3e29e643	0.16591744
236	0xbe878b02	-0.26473242
237	0x3ec13375	0.3773457
238	0xbd37ef8f	-0.044906195
239	0x3de61064	0.11233595
240	0xbdff636c	-0.12470135
241	0xbeb5e55e	-0.35526556
242	0xbd7ccb14	-0.061717108
243	0xbe87a392	-0.26491982
244	0xbe4aa6e8	-0.19790232
245	0x3eb1e610	0.34745836
246	0xbe81abd8	-0.2532642
247	0x3e72e60f	0.23720573
248	0xbb4efb75	-0.0031582986
249	0x3f20368b	0.62583226
250	0x3e98b8e4	0.2982856
251	0xbca45416	-0.020059627
252	0x3ebc6ea4	0.36803162
253	0x3e25b9f3	0.16184215
254	0x3e3d4515	0.18483384
255	0x3eea7c72	0.4579807

context_transformer_0/kq_shared_bottleneck/norm/mul;context_transformer_0/kq_shared_bottleneck/norm/add;context_transformer_0/attention/key/einsum/Einsum;context_transformer_0/attention/key/add;context_transformer_0/attention/value/einsum/Einsum;context_transformer_0/attention/key/add/ReadVariableOp/resource f4 [32]
0	0xbe20901d	-0.15679975
1	0xbd7f3185	-0.062303085
2	0x3d0f32e5	0.034960646
3	0xbe164d4f	-0.14677928
4	0x3dbaacf7	0.09115022
5	0xbde6d8b0	-0.112717986
6	0x3dc6705b	0.09689399
7	0xbf0874ea	-0.53303397
8	0xbe2e0a77	-0.1699618
9	0xbf0ec2b4	-0.55765843
10	0x3ed50bb2	0.41610485
11	0x3ec5976a	0.38592082
12	0x3c86d6e1	0.016459884
13	0xbe8fbc39	-0.2807329
14	0x3e2c2638	0.16811454
15	0x3d278323	0.040896546
16	0x3e0e0035	0.13867266
17	0xbe94c71d	-0.2905816
18	0xbbd371b0	-0.0064527616
19	0xbe48d9d3	-0.19614343
20	0xbe164d00	-0.1467781
21	0xbc0e92f9	-0.008702033
22	0xbe7b4d7a	-0.24541274
23	0xbd85f24b	-0.06540354
24	0x3e14ece4	0.14543492
25	0x3dda2db2	0.10653247
26	0x3d289dc2	0.041166075
27	0x3d9887c3	0.074477695
28	0x3d942d94	0.07235256
29	0xbee675a6	-0.45011634
30	0xbe08de58	-0.13366067
31	0xbd9d545f	-0.07682108

context_transformer_0/kq_shared_bottleneck/norm/mul;context_transformer_0/kq_shared_bottleneck/norm/add;context_transformer_0/attention/key/einsum/Einsum;context_transformer_0/attention/key/add;context_transformer_0/attention/value/einsum/Einsum;context_transformer_0/attention/key/add/ReadVariableOp/resource1 f4 [32, 32]
0	0x3aa01a42	0.0012214857
1	0xbe424e89	-0.18975271
2	0x3dbb1ed2	0.09136738
3	0xbc882cc0	-0.016622901
4	0x3ea56f7a	0.32311612
5	0xbea5d0e8	-0.32385945
6	0xbd90e59e	-0.07075046
7	0xbe70594c	-0.23471564
8	0xbe977143	-0.295786
9	0xbd894a7b	-0.06703659
10	0xbdf99df6	-0.12188332
11	0x3d1a0ff2	0.037612863
12	0xbe8a6686	-0.27031344
13	0xbe843ab3	-0.25826034
14	0xbd99fd03	-0.07518961
15	0x3e1fa409	0.15589918
16	0x3ee9d3bd	0.45669356
17	0x3e8090d9	0.2511051
18	0xbe27728e	-0.16352293
19	0xbea6d34a	-0.32583076
20	0xbd630d4a	-0.055432595
21	0x3e481230	0.19538188
22	0x3c59b0b4	0.013286758
23	0xbe259f83	-0.1617413
24	0x3da2b549	0.07944734
25	0xbe840f46	-0.25792903
26	0xbe12663c	-0.14296812
27	0xbe814cdb	-0.2525395
28	0x3ec93d13	0.39304408
29	0xbdae0c3c	-0.08498427
30	0xbd109d78	-0.035306424
31	0x3e93feec	0.28905427
32	0xbe78badc	-0.24290031
33	0x3ebbf4f4	0.36710322
34	0x3eb2b5ce	0.3490433
35	0xbcab7345	-0.020928988
36	0xbe9c199e	-0.30488294
37	0x3e24b15c	0.16083282
38	0xbed942b6	-0.4243371
39	0xbd411238	-0.047136515
40	0x3dbb8432	0.09156074
41	0x3dfeec73	0.12447443
42	0xbf0233f9	-0.50860554
43	0xbe2e982d	-0.17050238
44	0xbe0979be	-0.13425347
45	0x3e47176e	0.19442531
46	0x3e4b44dd	0.19850488
47	0xbf02f01b	-0.5114762
48	0xbe869cb4	-0.2629143
49	0x3e5ffdd5	0.21874173
50	0xbd249e05	-0.04018976
51	0x3e6bce15	0.23027833
52	0x3df6e381	0.12055112
53	0xbe08e1d9	-0.13367404
54	0x3e90f828	0.28314328
55	0xbf084ef5	-0.5324548
56	0xbe8a5798	-0.27019954
57	0x3ef5c568	0.48002172
58	0xbecce950	-0.40021753
59	0xbe4747ab	-0.19460933
60	0x3ee20aeb	0.44148955
61	0xbe7913a2	-0.24323896
62	0x3dd36241	0.10321475
63	0x3e649e7c	0.22326082
64	0x3e15d752	0.1463292
65	0xbd003d4b	-0.031308454
66	0x3d09108e	0.033463053
67	0xbdd2129d	-0.102574565
68	0x3e816cef	0.25278422
69	0xbe3015a9	-0.17195763
70	0xbe4363f6	-0.19081101
71	0xbe8e6982	-0.2781487
72	0xbe755e9c	-0.23961872
73	0xbe5fd087	-0.2185689
74	0x3e936814	0.28790343
75	0x3ee9e327	0.45681116
76	0xbec8d1c5	-0.3922254
77	0xbde86ab4	-0.11348477
78	0x3b82d316	0.0039924486
79	0x3ed64700	0.41851044
80	0x3eb2520b	0.3482822
81	0x3d697b78	0.057002515
82	0xbe7ab2da	-0.24482289
83	0xbe95b7d8	-0.29241824
84	0xbedfae18	-0.4368751
85	0xbe392686	-0.18081102
86	0xbe887992	-0.2665525
87	0xbcb6367d	-0.022242779
88	0x3e45d2b3	0.19318657
89	0xbea6525f	-0.3248472
90	0xbdbd5d84	-0.09246352
91	0x3e842288	0.25807595
92	0xbeb20ad9	-0.347739
93	0x3ed0796d	0.4071764
94	0x3de02d14	0.10946098
95	0xbd89f994	-0.067370564
96	0x3d98bf6d	0.074583866
97	0xbe1cea39	-0.15323724
98	0x3e2dd2d9	0.16974963
99	0xbdd7c7d2	-0.105361596
100	0x3eb7518f	0.35804412
101	0xbeb8417a	-0.35987455
102	0xbe403127	-0.1876875
103	0xbe50ddaf	-0.20397066
104	0xbe950595	-0.2910582
105	0xbdbc410f	-0.091920964
106	0xbdbc1c74	-0.091851145
107	0x3e306509	0.17226042
108	0xbea39f4c	-0.3195747
109	0xbe9844c8	-0.29739976
110	0xbd6dd47b	-0.058063965
111	0x3dfe10f5	0.12405578
112	0x3eeba57a	0.46024686
113	0x3e6977fb	0.22799675
114	0xbe1a624b	-0.15076558
115	0xbed85968	-0.42255712
116	0xbe3d2a57	-0.18473183
117	0x3d794b77	0.060862985
118	0xbca6f8d1	-0.020382317
119	0xbe88ffac	-0.26757562
120	0x3d8abc7b	0.06774231
121	0xbe993028	-0.29919553
122	0xbe714925	-0.23563059
123	0xbd393c18	-0.045223325
124	0x3e88d5b8	0.26725554
125	0x3cd95129	0.026527958
126	0x3d620b68	0.05518666
127	0x3e6e7912	0.23288372
128	0xbd4d75da	-0.05016122
129	0x3ea0300a	0.3128665
130	0x3cb7a00f	0.02241519
131	0x3cc00fa2	0.023444954
132	0xbe9b8c57	-0.30380508
133	0x3e9ecf0a	0.31017333
134	0xbdf1731c	-0.117895335
135	0x3c1b818c	0.009491336
136	0x3e7cd079	0.24688901
137	0x3dc50e7d	0.09621904
138	0xbd1404b2	-0.03613729
139	0x3d35da59	0.044397686
140	0x3da1af4a	0.07894762
141	0x3ea30ad8	0.3184421
142	0x3dc124af	0.09430825
143	0xbe14b8af	-0.14523576
144	0xbec98289	-0.39357403
145	0xbd319927	-0.043358948
146	0x3d3d7928	0.04625812
147	0x3e9ce059	0.30639914
148	0x3d3afc39	0.045650695
149	0xbe7b8246	-0.24561414
150	0x3c66e0e3	0.014091703
151	0xbc791f48	-0.015205212
152	0xbd7d5cac	-0.061855957
153	0x3eac650c	0.33670843
154	0xba8f3d72	-0.0010928346
155	0x3dc5ba6a	0.09654696
156	0xbe3bc52a	-0.18336931
157	0x3d0f07fc	0.034919724
158	0x3dade83d	0.084915616
159	0xbe0b77be	-0.13619897
160	0xbd8988b6	-0.06715529
161	0xbe959292	-0.29213387
162	0x3bd30e9c	0.0064409506
163	0x3cc9e93f	0.024647353
164	0x3e9420fb	0.28931412
165	0xbe99460e	-0.2993626
166	0x3e541da4	0.20714432
167	0xbd0ae7dd	-0.03391253
168	0xbe82f957	-0.25580856
169	0xbd59ad8a	-0.053144015
170	0xbd1e0448	-0.0385783
171	0xbe5c9ef3	-0.2154501
172	0xbd96781d	-0.073471285
173	0xbe8c0fd7	-0.27355835
174	0xbde3c84b	-0.11122187
175	0x3dddc67b	0.10828873
176	0x3eaba274	0.3352238
177	0x3d51b3d9	0.051196907
178	0x3b98de25	0.0046651536
179	0xbe7c5b7d	-0.24644275
180	0x3db70a1f	0.08937477
181	0x3eb46e10	0.3524022
182	0xbd01dab9	-0.03170273
183	0xbda53611	-0.08066953
184	0x399c16dc	0.0002977167
185	0xbe998c4e	-0.29989856
186	0x3e103ac4	0.14084917
187	0xbea088c1	-0.31354335
188	0x3ea860cc	0.3288635
189	0xbe19a42c	-0.15004033
190	0xbe21ef3f	-0.15813921
191	0x3e8246a2	0.25444514
192	0x3ca3dad8	0.020001814
193	0x3e8a98c4	0.27069676
194	0xbcac0101	-0.020996572
195	0x3d4290df	0.04750144
196	0xbeab7880	-0.33490372
197	0x3e881565	0.26578823
198	0xbe2c63b1	-0.16834904
199	0x3d94456b	0.07239803
200	0x3e8afcd5	0.2714602
201	0x3d867370	0.06564987
202	0xbc0803f1	-0.008301721
203	0x3bf2ef5f	0.007413789
204	0x3dc50d68	0.09621698
205	0x3e87b0d4	0.26502097
206	0x3d8d8037	0.06909221
207	0xbe33f8ea	-0.17575422
208	0xbecf0e3b	-0.40440544
209	0xbda8bf72	-0.0823964
210	0x3d35a6ad	0.044348408
211	0x3ea1c6dd	0.31597033
212	0x3d4d8bc9	0.050182138
213	0xbe774008	-0.2414552
214	0x3d247454	0.04015
215	0x3c496597	0.012292287
216	0xbdde5bc5	-0.108573474
217	0x3ea0c434	0.3139969
218	0xbd791d2d	-0.06081884
219	0x3e037267	0.1283661
220	0xbe531987	-0.20615207
221	0xbce33d93	-0.027739322
222	0x3dd08cb9	0.10183091
223	0xbe274462	-0.1633468
224	0x3f624684	0.8838885
225	0xbdd95153	-0.106112145
226	0xbec73de6	-0.38914412
227	0x3efcd835	0.49383703
228	0xbcaa4ae7	-0.02078767
229	0x3d87619d	0.06610415
230	0xbea104dd	-0.31449023
231	0xbf24f515	-0.64436466
232	0x3e65b774	0.22433263
233	0xbe6fec89	-0.23430075
234	0xbefa468e	-0.48881954
235	0x3f1a9fee	0.60400283
236	0x3f58351e	0.8445605
237	0x3d78d2e1	0.060747985
238	0xbf6d9569	-0.92806107
239	0x3f0be6cc	0.54649043
240	0x3db46033	0.08807411
241	0x3f602f03	0.87571734
242	0xbe81fe5c	-0.25389373
243	0xbdc4fd31	-0.09618605
244	0x3f14730d	0.57988054
245	0xbe9c717b	-0.3055533
246	0xbe5b74b0	-0.21431231
247	0x3f3dbae0	0.74113274
248	0x3f101caa	0.5629374
249	0x3d649a33	0.05581112
250	0xbe75ad7f	-0.23991965
251	0xbe81a512	-0.2532125
252	0x3f4ca5c5	0.79940444
253	0xbf44431b	-0.76664895
254	0x3ef541f0	0.4790187
255	0xbef9832f	-0.48732898

context_transformer_0/kq_shared_bottleneck/norm/mul;context_transformer_0/kq_shared_bottleneck/norm/add;context_transformer_0/attention/query/einsum/Einsum;context_transformer_0/attention/query/add;context_transformer_0/attention/value/einsum/Einsum;context_transformer_0/attention/query/add/ReadVariableOp/resource;context_transformer_0/attention/Mul;context_transformer_0/attention/Mul/y f4 [32]
0	0x3e50aaf7	0.20377718
1	0xbe2eb3dd	-0.170608
2	0x3e4907b2	0.19631842
3	0x3e76c9fe	0.24100491
4	0xbe4b990c	-0.19882601
5	0x3e265033	0.16241531
6	0xbe495dd6	-0.19664702
7	0x3cb14744	0.021640427
8	0x3e1b82e1	0.15186645
9	0x3db4f3b0	0.08835542
10	0xbdbb559f	-0.0914719
11	0xbdb41c6e	-0.08794485
12	0x3da6ec0b	0.081504904
13	0x3dd7d2ec	0.10538277
14	0xbe835509	-0.25650814
15	0xbd72b065	-0.059250254
16	0xbe1833f6	-0.14863572
17	0xbe190a95	-0.14945443
18	0x3e65659f	0.22402047
19	0x3e507a08	0.20359051
20	0x3e8a389a	0.2699631
21	0x3e137c99	0.14402999
22	0x3e135c42	0.14390662
23	0xbdd349c5	-0.10316805
24	0x3e00e1ce	0.12586138
25	0x3e2434dd	0.1603579
26	0xbd0dffc5	-0.03466775
27	0x3db83116	0.089937374
28	0x3d0ff503	0.03514577
29	0x3d9d4a7e	0.07680224
30	0xbdd36a40	-0.10323
31	0x3d7a3ae8	0.061091334

context_transformer_0/kq_shared_bottleneck/norm/mul;context_transformer_0/kq_shared_bottleneck/norm/add;context_transformer_0/attention/query/einsum/Einsum;context_transformer_0/attention/query/add;context_transformer_0/attention/value/einsum/Einsum;context_transformer_0/attention/query/add/ReadVariableOp/resource;context_transformer_0/attention/Mul;context_transformer_0/attention/Mul/y1 f4 [32, 32]
0	0x3cde14f8	0.027109608
1	0x3d402e09	0.046918903
2	0xbd73e277	-0.059542146
3	0x3e343a80	0.17600441
4	0xbd142b5a	-0.036174156
5	0x3caf033f	0.021363853
6	0xbd128617	-0.03577241
7	0x3c396e24	0.0113177635
8	0xbde85fe6	-0.11346416
9	0x3d64c15b	0.05584846
10	0xbd2c9b88	-0.042140514
11	0xbc9dfd21	-0.01928574
12	0xbb888273	-0.0041659414
13	0x3c96b16f	0.018395154
14	0x3ddc3b71	0.10753525
15	0x3da7ee47	0.08199745
16	0xbd7a0745	-0.06104209
17	0x3dcd52a4	0.10025528
18	0xbde7cf93	-0.113188885
19	0x3d760847	0.060066488
20	0x3af2ece4	0.0018533734
21	0x3e0cecdc	0.1376223
22	0x3d8ada8d	0.067799665
23	0x3c4904e3	0.0122692315
24	0xbd596c9f	-0.053082105
25	0xbdbd0e5e	-0.09231256
26	0x3b253288	0.002520712
27	0x3bc281b7	0.0059358734
28	0x3e115db4	0.14195901
29	0xbd4f5b82	-0.050624378
30	0xbd3704b5	-0.044682223
31	0x3de0c363	0.10974767
32	0xbe0a0b8c	-0.13480967
33	0x3e169b42	0.14707664
34	0x3d1d984a	0.038475312
35	0xbdbe3d06	-0.09288983
36	0xbba7c922	-0.0051204124
37	0xbd3caec0	-0.046065092
38	0xbe43f8f5	-0.19137938
39	0xbe0aa371	-0.1353891
40	0xbd152921	-0.036416177
41	0xbcf923ed	-0.030412639
42	0xbdb96cd9	-0.09053964
43	0xbbf54ebc	-0.0074861925
44	0xbe845043	-0.25842485
45	0xbb69cd61	-0.0035675394
46	0xbc8993e2	-0.016794149
47	0xbce0ec01	-0.027456285
48	0x3d3ea91e	0.046548
49	0x3e189117	0.14899097
50	0xbd8c2a41	-0.06843997
51	0xbd465ca9	-0.04842821
52	0x3d0ffbd0	0.035152256
53	0xbda3609a	-0.0797741
54	0x3b1cfb9f	0.0023953689
55	0xbe5ea87a	-0.21743956
56	0xbd56f2c0	-0.0524776
57	0x3dbbc052	0.091675416
58	0xbe1fbbac	-0.15598935
59	0xbe0b29cc	-0.13590163
60	0x3e2b4d11	0.16728617
61	0xbdce6149	-0.100771494
62	0x3acf6dcd	0.001582557
63	0x3e1f71e4	0.1557079
64	0x3e58058a	0.21095863
65	0x3cfbd258	0.030739948
66	0x396803d5	0.00022126672
67	0x3e1ec554	0.15504962
68	0xbccf778d	-0.025325561
69	0x3c93ee30	0.018057913
70	0xbd14df65	-0.036345858
71	0x3d3172c3	0.043322336
72	0xbd8f229e	-0.069890246
73	0x3daadf67	0.08343392
74	0x3d090fb0	0.033462226
75	0x3df36480	0.11884403
76	0x3dfb6f75	0.12277118
77	0x3d782e2e	0.060590915
78	0xbd34b03f	-0.044113394
79	0x3db18928	0.086687386
80	0xbd3f1b68	-0.046656996
81	0x3e018589	0.12648596
82	0xbd2f20ae	-0.042755775
83	0x3ced8aea	0.028996903
84	0xbdcd121d	-0.100132205
85	0xbc256f6c	-0.010097366
86	0x3d1452c3	0.03621174
87	0x3d9c57cc	0.076339334
88	0x3dc3a2f6	0.09552567
89	0xbd305afc	-0.04305552
90	0xbd85494d	-0.06508122
91	0x3e6ec5fd	0.23317714
92	0xbe2223b3	-0.1583393
93	0x3e2a4548	0.16627991
94	0x3e05ec17	0.13078342
95	0xbde73776	-0.11289875
96	0x3d11ada1	0.035565976
97	0x3da467a9	0.08027584
98	0xbd4b4de5	-0.049634833
99	0x3e405c11	0.1878512
100	0xbd636b96	-0.055522524
101	0x3d369418	0.044574827
102	0xbdabd1d0	-0.08389628
103	0xbc9fd0ad	-0.019508684
104	0xbdd3e936	-0.10347216
105	0x3dbaf80b	0.09129342
106	0xbcf9e81d	-0.030506188
107	0xbc1b3159	-0.009472215
108	0xbcb2f048	-0.02184309
109	0x3d5c7f34	0.053832248
110	0x3da9fc3e	0.083000645
111	0x3de9a553	0.11408486
112	0xbd6aaf37	-0.057296004
113	0x3dddb9d5	0.1082646
114	0xbe0eee38	-0.1395806
115	0x3d724c36	0.05915471
116	0xbd42de21	-0.04757512
117	0x3dac0b35	0.08400575
118	0x3d991f0a	0.07476623
119	0xbd1b3bf5	-0.037898976
120	0xbc9ac3f9	-0.018892275
121	0xbd88216d	-0.066470005
122	0xbc9fdffc	-0.019515984
123	0x3d690e52	0.056898423
124	0x3d777979	0.06041858
125	0x3c79eefe	0.015254734
126	0x3ba5d7e3	0.005061136
127	0x3d8b1070	0.067902446
128	0x3c066afb	0.008204217
129	0x3c3c2694	0.011483807
130	0x3d8669ab	0.06563123
131	0xbe0caeb6	-0.13738522
132	0x3cb6bd86	0.022307169
133	0xbd338195	-0.04382475
134	0xbd39ca2d	-0.045358825
135	0xbd6863d6	-0.056735836
136	0x3d6959a3	0.05697025
137	0xbdb4e304	-0.08832362
138	0xbc0527ce	-0.008127166
139	0x3d436837	0.04770681
140	0xbd6a1911	-0.05715281
141	0xbcacaceb	-0.021078547
142	0xbdc55a22	-0.09636332
143	0xbd5e2aed	-0.054240156
144	0x3d40fbe3	0.047115218
145	0x3cc19e4d	0.023635054
146	0x3d80e1af	0.06293046
147	0xbd6eedbf	-0.0583322
148	0xbc06089b	-0.008180763
149	0xbdf63dc6	-0.12023501
150	0xbd9e9d5b	-0.07744857
151	0xbd897863	-0.06712415
152	0x3cfc3d14	0.030790843
153	0x3d974d07	0.07387739
154	0xbd8830b4	-0.066499144
155	0xbc736985	-0.014856701
156	0xbd851548	-0.064982
157	0x3d1c6d6d	0.038190294
158	0x3d2cf9e1	0.04223049
159	0xbcb8a160	-0.022537887
160	0xbce6f7d0	-0.028194338
161	0xbd2fc211	-0.042909686
162	0xbd8744a3	-0.06604888
163	0x3e176115	0.14783128
164	0xbc388543	-0.011262241
165	0x3c684276	0.014176002
166	0x3d20c3d2	0.03924925
167	0x3d326eb4	0.043562606
168	0xbd9b7cdc	-0.075921744
169	0x3dc3b895	0.095566906
170	0xbb1f26fc	-0.002428471
171	0xbdbc819c	-0.092044085
172	0x3d66aeb2	0.056318946
173	0xbc5e173d	-0.013555345
174	0x3e00d816	0.1258243
175	0x3d6945e2	0.05695141
176	0xbd17ec35	-0.0370905
177	0xbc7f441a	-0.0155802015
178	0xbd2771c0	-0.040879965
179	0x3d2d1637	0.042257514
180	0x3d37dc68	0.04488793
181	0x3e1869ad	0.14884062
182	0x3db05752	0.08610405
183	0x3d8a1891	0.06742967
184	0xbd4e0311	-0.050295893
185	0xbd990723	-0.07472064
186	0x3dd3a445	0.10334066
187	0xbc574abf	-0.013140379
188	0x3e108d78	0.14116466
189	0xbe0569cf	-0.13028644
190	0xbdbe4ac0	-0.09291601
191	0x3d9e37f3	0.07725515
192	0xbc7334c8	-0.014844127
193	0x3cb29af6	0.021802407
194	0x3d8a8710	0.067640424
195	0xbe1d5167	-0.15363084
196	0x3c3a8325	0.011383806
197	0xbd13e9ce	-0.036111645
198	0xbd0f37d2	-0.034965344
199	0xbd6190dc	-0.05506979
200	0x3d8a0289	0.06738765
201	0xbdbebf72	-0.09313859
202	0xbc2f444a	-0.010697434
203	0x3d5a56af	0.053305324
204	0xbd8c27e9	-0.0684355
205	0xbca93b23	-0.020658081
206	0xbdc2cffc	-0.09512326
207	0xbd8c158d	-0.06840048
208	0x3d1b45ef	0.03790849
209	0xbbed4130	-0.007240437
210	0x3d7cd2b4	0.06172438
211	0xbd5cdaa4	-0.05391945
212	0xbc4b0990	-0.012392417
213	0xbdff874e	-0.12476979
214	0xbd93b4a6	-0.0721219
215	0xbd93c8bc	-0.072160214
216	0x3d11127c	0.03541802
217	0x3d9daa7d	0.07698534
218	0xbda8beb2	-0.08239497
219	0xbd1d5233	-0.03840847
220	0xbd66d142	-0.056351908
221	0x3d6463f6	0.055759393
222	0x3d412bcd	0.047160912
223	0xbd488f2c	-0.048964664
224	0x3d980407	0.07422643
225	0xbc955edf	-0.018233715
226	0xbc9dce21	-0.019263329
227	0x3bc547ae	0.006020508
228	0xbcaf49fc	-0.021397583
229	0x3d291002	0.041275032
230	0x3ca5031f	0.02014309
231	0xbd8f4d12	-0.06997122
232	0xbd9940c8	-0.07483059
233	0xbeb914b5	-0.3614861
234	0xbac6efdd	-0.0015177686
235	0x3dcee473	0.10102167
236	0x3ca8983e	0.020580407
237	0x3d03e2ca	0.032198705
238	0x3d02b959	0.031915043
239	0x3dc0c349	0.09412248
240	0xbd49873d	-0.04920124
241	0x3b342198	0.0027485844
242	0xbd9f8a95	-0.07790104
243	0x3d3fa20d	0.046785403
244	0xbd2a8869	-0.041633997
245	0x3cdbc30d	0.026826406
246	0xbe6c576a	-0.23080221
247	0x3dd18838	0.1023106
248	0x3c5fcc44	0.013659541
249	0xbda06740	-0.078321934
250	0x3d08b645	0.03337695
251	0xbe5ee31d	-0.21766324
252	0x3dd6dfa0	0.10491872
253	0x3d9db7fa	0.07701106
254	0x3c340048	0.010986395
255	0x3cf0614a	0.029343266

context_transformer_0/ffn_layer_0/intermediate_dense/einsum/Einsum;context_transformer_0/ffn_layer_0/intermediate_dense/Relu;context_transformer_0/ffn_layer_0/intermediate_dense/add f4 [32]
0	0xbdff9e80	-0.12481403
1	0xbeb2b693	-0.34904918
2	0xbe91b510	-0.28458452
3	0xbec6ca6b	-0.38826308
4	0xbea5e415	-0.32400575
5	0xbe356486	-0.17714128
6	0xbe886365	-0.26638332
7	0xbde17a37	-0.11009639
8	0xbde0b808	-0.10972601
9	0xbead9350	-0.33901453
10	0xbe9b2223	-0.30299482
11	0xbe40c5d4	-0.18825465
12	0xbec787bf	-0.38970754
13	0xbee0a23f	-0.43873784
14	0xbe81f72b	-0.25383887
15	0xbe580d8d	-0.21098919
16	0xbeba02b2	-0.3633018
17	0xbea0de18	-0.31419444
18	0xbe852c4d	-0.2601036
19	0xbe783dc4	-0.24242312
20	0xbeeb6eac	-0.45982873
21	0xbd1fc5ba	-0.039006926
22	0xbe5f4180	-0.2180233
23	0xbeaac90f	-0.3335652
24	0xbead0635	-0.33793798
25	0xbe638df0	-0.22222114
26	0xbec66661	-0.38749984
27	0xbe9aa790	-0.30205965
28	0xbe8202bc	-0.2539271
29	0xbec67d54	-0.38767493
30	0xbea35690	-0.3190198
31	0xbc0148f0	-0.007890925

context_transformer_0/attention/norm/mul;context_transformer_0/attention/norm/add;context_transformer_0/ffn_layer_0/intermediate_dense/einsum/Einsum;context_transformer_0/ffn_layer_0/intermediate_dense/Relu;context_transformer_0/ffn_layer_0/intermediate_dense/add f4 [32, 32]
0	0x3d6bc414	0.05756004
1	0x3e3371cd	0.1752388
2	0xbdc0ef67	-0.094206624
3	0x3d2a1114	0.041520193
4	0x3ebb78cb	0.36615595
5	0x3d8a8a6f	0.06764685
6	0x3f09898e	0.53725517
7	0x3d98fd07	0.07470136
8	0x3e8b5005	0.27209488
9	0xbd889c55	-0.06670443
10	0xbdb3b44e	-0.08774625
11	0xbc8aaffe	-0.016929623
12	0xbe31edbd	-0.17375846
13	0xbd4df5fe	-0.050283425
14	0xbd9916ac	-0.074750274
15	0xbe00fc6b	-0.1259629
16	0xbebb35e0	-0.3656454
17	0xbdfbab91	-0.12288583
18	0xbdbb0cdf	-0.09133314
19	0xbe272c25	-0.16325434
20	0x3df95b77	0.12175649
21	0x3e9c7734	0.30559695
22	0xbb285c29	-0.0025689697
23	0x3e463637	0.19356619
24	0xbea91f7c	-0.33031833
25	0xbdce9ebf	-0.10088872
26	0xbdb43611	-0.08799375
27	0xbd24aa20	-0.040201306
28	0x3e007e62	0.12548211
29	0x3d90bc40	0.07067156
30	0xbc6378e8	-0.013883807
31	0x3e1c645a	0.15272656
32	0x3f08c93b	0.53432053
33	0x3dba421a	0.09094639
34	0x3bc73086	0.0060787825
35	0x3c46528e	0.0121046435
36	0x3e89e9dc	0.26936233
37	0x3baf47a6	0.0053491173
38	0xbdab15d6	-0.08353774
39	0xbe41b820	-0.18917894
40	0x3df9cd37	0.12197345
41	0x3d3997a8	0.045310646
42	0xbd196d8c	-0.037457988
43	0x3eb8e152	0.36109406
44	0x3ca3e4fe	0.020006653
45	0x3b35d7ff	0.0027747152
46	0xbe53ded6	-0.20690474
47	0x3e9b14f6	0.3028943
48	0xbe485f52	-0.19567612
49	0xbdc7b5a3	-0.09751441
50	0x3e65beaa	0.22436014
51	0xbe4924f4	-0.19643003
52	0x3e8e44e3	0.2778693
53	0x3d380d08	0.044934303
54	0x3dd0635d	0.10175202
55	0x3f331165	0.69948417
56	0x3e292beb	0.1652066
57	0x3dbea56b	0.09308895
58	0xbce13e98	-0.027495667
59	0x3c8a674d	0.01689496
60	0x3dcae959	0.09907789
61	0xbe3c73ad	-0.18403502
62	0x3e380b5b	0.17973082
63	0x3d1b0ef0	0.037856042
64	0x3c24f652	0.010068493
65	0x3d93b909	0.07213027
66	0xbe17f157	-0.14838158
67	0x3e293b82	0.16526607
68	0x3dd7232d	0.10504756
69	0xbe7220a2	-0.23645261
70	0x3e5b3f69	0.21410908
71	0xbdc9c156	-0.09851329
72	0xbb9353c9	-0.004496072
73	0xbd564886	-0.052315257
74	0xbd7e2d76	-0.062055074
75	0xbec5a66c	-0.38603532
76	0xbee18232	-0.44044644
77	0xbe343714	-0.17599136
78	0xbc7d88f6	-0.015474549
79	0x3e7e8d52	0.24858597
80	0xbdc1cf68	-0.09463388
81	0xbd6f8afa	-0.058482148
82	0x3e67d175	0.22638495
83	0xbd499018	-0.049209684
84	0xbddd0c52	-0.107933655
85	0xbcb165c3	-0.02165497
86	0x3d2a9913	0.04164989
87	0xbea9fa65	-0.33198848
88	0x3d5777b9	0.05260441
89	0xbf0a8825	-0.5411399
90	0xbea95f22	-0.33080393
91	0x3e80f3e0	0.25186062
92	0xbe68d22d	-0.22736426
93	0xbcca793f	-0.024716018
94	0x3e19e0ed	0.15027209
95	0xbe2ea3d1	-0.17054678
96	0x3f0581e6	0.52151334
97	0x3e463f89	0.19360174
98	0x3c865abb	0.016400686
99	0x3c872fe5	0.01650233
100	0x3e61c56f	0.22047971
101	0xbda8e9c6	-0.08247714
102	0xbdf3475b	-0.11878844
103	0xbde21346	-0.11038832
104	0xbde2c7fc	-0.110733
105	0x3e08937f	0.13337515
106	0xbb8169a8	-0.003949363
107	0x3e0c9966	0.13730392
108	0xbe2e2852	-0.17007568
109	0xbd38f1f4	-0.04515262
110	0xbea4142c	-0.3204664
111	0x3d0615e7	0.03273573
112	0xbe8027dc	-0.2503041
113	0x3e1448ee	0.14480945
114	0xbe2fc799	-0.17165984
115	0xbe7465f9	-0.23867024
116	0x3e8b4707	0.27202627
117	0x3ced2592	0.028948579
118	0x3b8af69f	0.0042408253
119	0x3df65341	0.12027598
120	0xbc8d63c4	-0.017259486
121	0x3d42b36a	0.047534384
122	0xbe0f6fc4	-0.14007479
123	0xbd5c4be5	-0.053783316
124	0x3d0ea57a	0.03482578
125	0xbe2221b8	-0.15833175
126	0x3d89028d	0.0668994
127	0x3d86bfe8	0.06579572
128	0xbd2ba82b	-0.041908424
129	0x3e818b91	0.25301793
130	0xbd96f27d	-0.0737047
131	0x3d79d3e0	0.060993075
132	0x3d557617	0.052114572
133	0xbd5c1df8	-0.053739518
134	0x3cdeed3d	0.027212733
135	0x3f0d29fd	0.55142194
136	0xbe1f0dbd	-0.15532584
137	0x3d11d025	0.035598893
138	0x3dc92a92	0.09822573
139	0xbd135cd5	-0.035977203
140	0x3db721b6	0.08941977
141	0x3e3e5684	0.1858769
142	0xbe8975ca	-0.26847678
143	0x3d0baa84	0.034098163
144	0x3b7582b6	0.0037461943
145	0xbec7401b	-0.38916096
146	0xbe443ea8	-0.19164526
147	0x3e0c4e71	0.13701798
148	0x3e1b8e96	0.15191111
149	0xbe34331b	-0.1759762
150	0xbdd6bca4	-0.10485199
151	0x3e420ed6	0.18950972
152	0xbe7d7ec8	-0.24755394
153	0x3e15bb10	0.1462214
154	0xbda4778f	-0.080306165
155	0x3dd189e5	0.102313794
156	0xbe529028	-0.20562804
157	0xbc00796b	-0.007841448
158	0xbe2fd391	-0.1717055
159	0x3d4afee9	0.049559508
160	0x3dda69cf	0.10664713
161	0x3c0d7b9d	0.008635429
162	0x3e923bcf	0.28561255
163	0xbd61b7ad	-0.055106808
164	0x3c3dba67	0.011580086
165	0x3eac39f5	0.33637968
166	0xbd039431	-0.03212375
167	0xbe5b6c27	-0.21427976
168	0xbe5021c9	-0.20325388
169	0x3e1cae05	0.15300758
170	0x3e02dfc6	0.12780675
171	0x3e474ac8	0.1946212
172	0x3d1cbc5c	0.03826557
173	0x3e4b11e5	0.19831045
174	0xbe2a6c42	-0.1664286
175	0xbebd2090	-0.36938906
176	0xbeb47edb	-0.35253033
177	0xbeead2ec	-0.45864046
178	0xbe95b2f0	-0.2923808
179	0x3dfd0df6	0.123561785
180	0x3df10c71	0.11769951
181	0x3e6823dd	0.22669931
182	0xbd321771	-0.043479387
183	0x3ecc40ef	0.3989329
184	0x3e37083b	0.17874233
185	0x3d803b25	0.06261281
186	0x3e8ecd5b	0.2789105
187	0xbe9accc2	-0.30234343
188	0x3d303a95	0.04302462
189	0x3d8a9991	0.06767572
190	0x3e3f82a4	0.18702179
191	0xbce37f98	-0.027770802
192	0x3e9dc40a	0.30813628
193	0xbd97713c	-0.073946446
194	0xbdb602b0	-0.08887231
195	0x3b6394d5	0.0034726162
196	0x3d868e1c	0.06570074
197	0x3e4f22eb	0.20228164
198	0x3e2714f7	0.16316591
199	0xbe2c3b4f	-0.168195
200	0x3e1c32b7	0.15253721
201	0x3dd5b736	0.10435335
202	0xbd1d228c	-0.038363025
203	0x3e88f992	0.26752907
204	0x3da6ea6d	0.08150182
205	0x3e41289e	0.1886315
206	0xbd63d49b	-0.05562268
207	0xbe8538eb	-0.26019987
208	0xbc5e52cc	-0.013569545
209	0x3e5946d5	0.21218427
210	0xbe80270c	-0.2502979
211	0x3bb0a42d	0.005390665
212	0x3d9e6881	0.07734776
213	0x3e8c08f0	0.2735057
214	0x3edb037f	0.42776105
215	0x3ed6e342	0.4197026
216	0xbe07110a	-0.13190094
217	0x3da55a5c	0.08073875
218	0xbe1fedfc	-0.15618128
219	0x3daf0fcc	0.08547935
220	0x3e05c81b	0.13064615
221	0xbe3a9061	-0.18219139
222	0xbd3b0b38	-0.045664996
223	0x3cb0afa8	0.021568134
224	0x3d52a7b1	0.051429454
225	0xbd853d75	-0.065058626
226	0x3d7fc307	0.062441852
227	0xbdbf5ae6	-0.093435094
228	0x3df59cd8	0.11992806
229	0x3e06a0f2	0.13147333
230	0x3ebbb2c0	0.36659813
231	0xbeb24230	-0.34816122
232	0xbdb7a651	-0.08967269
233	0xbe46b1ee	-0.19403812
234	0xbe89775d	-0.2684888
235	0x3e5154b6	0.20442471
236	0x3e2a8ae7	0.1665455
237	0x3e2d73ab	0.16938655
238	0xbe1701ed	-0.14746828
239	0xbd7c71f0	-0.061632097
240	0xbe8323ec	-0.25613344
241	0xbd2817c6	-0.041038297
242	0x3eb4e14d	0.3532814
243	0x3e18118e	0.14850447
244	0xbdf8b7ea	-0.12144454
245	0x3e9a701e	0.30163664
246	0xbd54382b	-0.05181138
247	0x3ec3903f	0.3819599
248	0xbe8fe97a	-0.28107816
249	0x3eb50324	0.3535396
250	0xbda62a20	-0.081135035
251	0x3d60eb6b	0.054912012
252	0x3e0caf60	0.13738775
253	0xbe6dcd0d	-0.23222752
254	0x3e347ac5	0.17624958
255	0xbdcccaac	-0.09999594

context_transformer_0/ffn_layer_1/intermediate_dense/einsum/Einsum;context_transformer_0/ffn_layer_1/intermediate_dense/Relu;context_transformer_0/ffn_layer_1/intermediate_dense/add f4 [32]
0	0xbe0dec64	-0.13859707
1	0xbe711250	-0.23542142
2	0xbe965ee7	-0.2936928
3	0xbe44607a	-0.19177428
4	0xbd7e4365	-0.06207599
5	0xbe0073c7	-0.12544166
6	0xbd6bbafe	-0.057551377
7	0xbe5a9205	-0.21344765
8	0xbd3f58c6	-0.04671552
9	0xbe003dac	-0.12523526
10	0xbe3388a2	-0.1753259
11	0xbe63766a	-0.2221314
12	0xbeaa0dfb	-0.3321379
13	0xbea736fb	-0.32659134
14	0xbcae1006	-0.021247875
15	0xbe8767dc	-0.26446426
16	0xbe16f079	-0.1474017
17	0xbda550c4	-0.080720454
18	0xbe250f7c	-0.16119188
19	0xbe8de302	-0.27712256
20	0xbe8c6d33	-0.27427062
21	0xbe5b7f9d	-0.214354
22	0xbd727e3e	-0.059202425
23	0xbd137c0f	-0.036006983
24	0xbe6418c2	-0.2227507
25	0xbeac2043	-0.33618364
26	0xbeb41bf9	-0.3517759
27	0xbccad5ae	-0.024760094
28	0xbd984683	-0.07435324
29	0xbde10df5	-0.1098899
30	0xbcc8b8f0	-0.024502248
31	0x3c59b913	0.013288754

context_transformer_0/ffn_layer_0/norm/mul;context_transformer_0/ffn_layer_0/norm/add;context_transformer_0/ffn_layer_1/intermediate_dense/einsum/Einsum;context_transformer_0/ffn_layer_1/intermediate_dense/Relu;context_transformer_0/ffn_layer_1/intermediate_dense/add f4 [32, 32]
0	0x3e38fa43	0.18064217
1	0x3b2f3908	0.0026736874
2	0xbb9a232c	-0.0047039
3	0xbd9cc93d	-0.07655571
4	0x3e1be5ee	0.1522443
5	0xba8629f2	-0.0010235889
6	0x3e943205	0.28944412
7	0xbe38e65c	-0.18056625
8	0x3c811e1f	0.015761433
9	0x3e17b630	0.14815593
10	0x3e8f6ee9	0.28014305
11	0x3e8138a9	0.2523854
12	0x3e7549a7	0.23953877
13	0xbe9f4f5e	-0.3111524
14	0xbdaccc9e	-0.08437465
15	0xbe692523	-0.22768073
16	0xbcac4f27	-0.021033837
17	0xbedd9b2c	-0.4328245
18	0x3d3eeb2d	0.046611
19	0xbddf9763	-0.109175466
20	0xbd62f861	-0.055412654
21	0x3e9d3e94	0.30711806
22	0xbd94b4e3	-0.07261064
23	0x3e206355	0.15662892
24	0x3d1c9928	0.038232
25	0xbe2a2a90	-0.16617799
26	0xbcebb572	-0.028773043
27	0xbe0015b5	-0.1250828
28	0x3e87eff0	0.26550245
29	0x3ee68950	0.45026636
30	0x3c006cb4	0.007838417
31	0xbe5c76d9	-0.21529712
32	0xbd8b8cbe	-0.06813954
33	0x3c76406d	0.015030009
34	0x3bc04cf4	0.0058685485
35	0x3e8761dc	0.26441848
36	0x3e86e185	0.26343933
37	0xbf01f6c9	-0.5076719
38	0x3e131a94	0.14365608
39	0xbebc4bbf	-0.3677654
40	0xbe223abf	-0.15842722
41	0xbd27facb	-0.04101066
42	0xbdbed402	-0.09317781
43	0xbd64614c	-0.055756852
44	0xbcb30540	-0.02185309
45	0x3e749193	0.23883657
46	0xbd843a0e	-0.064563856
47	0x3c00d012	0.007862108
48	0xbb99da66	-0.0046952246
49	0x3ef7e850	0.48419428
50	0xbcb95212	-0.022622142
51	0xbe8ba1fb	-0.2727202
52	0xbe2e28c6	-0.17007741
53	0x3d655e94	0.0559984
54	0xbe652f2a	-0.22381273
55	0x3d9f4323	0.07776477
56	0xbd93310f	-0.071870916
57	0xbe5a5d3e	-0.21324632
58	0xbdc9ee41	-0.098598965
59	0xbc2ab205	-0.01041842
60	0xbd60719b	-0.054795843
61	0x3e9750c3	0.29553804
62	0x3d86e846	0.065872714
63	0x3dfcbd7a	0.12340827
64	0xbc5de08b	-0.013542305
65	0xbe49ced4	-0.19707805
66	0x3d54ee4b	0.051985066
67	0x3d3b294a	0.045693673
68	0x3e8543d2	0.26028305
69	0xbdf902ec	-0.121587604
70	0xbea2a604	-0.31767285
71	0x3eafad1b	0.34311756
72	0xbed071b9	-0.40711764
73	0x39f9d811	0.00047653963
74	0xbce27751	-0.027644785
75	0xbcaa4a2e	-0.020787325
76	0x3e187cbc	0.14891332
77	0x3e118dab	0.14214198
78	0xbdf1a048	-0.11798149
79	0x3e33664a	0.17519489
80	0xbe580109	-0.21094145
81	0xbd8d179e	-0.0688927
82	0x3e719781	0.2359295
83	0xbe277e64	-0.16356808
84	0x3e316b95	0.17326196
85	0x3e469fae	0.1939685
86	0xbdfa0d38	-0.122095525
87	0xbd8b954b	-0.06815585
88	0xbd5cb834	-0.053886607
89	0x3e8417ac	0.2579931
90	0xbe4a210c	-0.19739169
91	0xbe79c12e	-0.24390098
92	0xbe3f8cc4	-0.18706042
93	0xbed762ff	-0.42067716
94	0x3ce0c827	0.02743919
95	0x3e8ef9d0	0.27924967
96	0x3e0192f7	0.12653719
97	0xbe081059	-0.13287486
98	0x3e66ea5e	0.22550341
99	0xbe4bfb60	-0.1992011
100	0x3e51c774	0.20486242
101	0x3c70d13d	0.014698324
102	0x3e7ebd78	0.24876964
103	0xbde9ffab	-0.11425718
104	0x3cfc53f1	0.030801745
105	0xbd2d2240	-0.04226899
106	0x3d8f7405	0.07004551
107	0xbdc68160	-0.09692645
108	0x3e5b2a62	0.21402887
109	0xbe652df2	-0.22380808
110	0xbd96742d	-0.073463775
111	0xbd2a28b9	-0.041542742
112	0xbe87457c	-0.264202
113	0x3e94541f	0.2897043
114	0xbda3841a	-0.07984181
115	0xbe9bd091	-0.3043256
116	0x3d27cdf7	0.040967908
117	0xbda0fdd3	-0.07860913
118	0xbd0d69d1	-0.034524743
119	0x3e55e760	0.20889044
120	0xbdd6b9a5	-0.10484628
121	0xbe0febf7	-0.14054857
122	0x3e16ee2f	0.14739297
123	0x3ca03cee	0.019560304
124	0xbea98387	-0.3310816
125	0x3edd8847	0.43268034
126	0xbd8cd518	-0.06876582
127	0x3e7d8b32	0.2476013
128	0x3e04ca3d	0.12967773
129	0xbd9137aa	-0.07090695
130	0xbd368982	-0.04456473
131	0x3e1393b4	0.14411813
132	0xbe17df83	-0.14831357
133	0xbe3e759b	-0.1859955
134	0xbe8420d8	-0.25806308
135	0x3e8c0976	0.27350968
136	0x3e28bd76	0.16478524
137	0x3f0a77f0	0.5408926
138	0x3f11c13b	0.5693547
139	0xbe27869a	-0.1635994
140	0x3e3128fb	0.17300789
141	0xbd851274	-0.0649766
142	0xbdb5d0b2	-0.08877696
143	0x3e027a95	0.12742074
144	0x3d08e137	0.033417907
145	0x3f0028be	0.5006217
146	0xbed3c5ad	-0.41361752
147	0xbd6caf40	-0.05778432
148	0x3ce36760	0.027759254
149	0xbdaa3590	-0.083109975
150	0x3d8ada96	0.06779973
151	0xbe16a0cb	-0.14709775
152	0x3eb8e999	0.3611572
153	0xbd9dc5a9	-0.07703716
154	0x3e84f8e5	0.2597114
155	0xbe36b5ca	-0.17842785
156	0xbe034d31	-0.12822415
157	0xbe1f6ca2	-0.15568784
158	0xbe877421	-0.26455787
159	0x3dbdffa1	0.09277273
160	0x3ef38946	0.4756567
161	0x3e25fdc2	0.16210082
162	0x3d0dfcde	0.03466498
163	0x3db41ef3	0.087949656
164	0x3e6a7f91	0.22900225
165	0x3e21c616	0.1579822
166	0x3ccb4982	0.024815325
167	0xbe3e0c98	-0.18559492
168	0x3aaf8609	0.0013391386
169	0x3eb1d322	0.34731394
170	0x3e6bb0eb	0.23016708
171	0x3dc777c0	0.097396374
172	0xbe07193b	-0.13193218
173	0xbe62f472	-0.22163561
174	0xbe9d6f51	-0.3074899
175	0x3dbd380a	0.09239204
176	0xbea9f09b	-0.3319138
177	0x3dead7d5	0.11466948
178	0xbec31f69	-0.38109902
179	0xbed65825	-0.41864124
180	0x3e227292	0.15864018
181	0xbdec3af6	-0.115346834
182	0x3ddbe788	0.107375205
183	0xbe238402	-0.15968326
184	0xbdc2bd6f	-0.09508788
185	0xbe6809db	-0.2266001
186	0xbe3a2ad3	-0.18180399
187	0xbd5fc1aa	-0.05462805
188	0x3e0ad46f	0.135576
189	0x3c21f3b1	0.009884761
190	0xbea27197	-0.31727287
191	0x3e8ef863	0.2792388
192	0x3d1d7b37	0.038447585
193	0x3c1af436	0.0094576385
194	0x3d9642b4	0.07336941
195	0xbe1d0ed9	-0.15337695
196	0x3e000fb0	0.12505984
197	0xbd3c7de0	-0.04601848
198	0x3f00b94d	0.50282747
199	0x3d9e1abc	0.07719943
200	0x3c6fe2f4	0.014641512
201	0x3c129fee	0.008949263
202	0x3c5d1667	0.013494111
203	0x3de313e0	0.11087775
204	0xbdfbcd3f	-0.12295007
205	0xbddebf64	-0.108763486
206	0xbc5e8b7f	-0.013583063
207	0x3ce79468	0.028269008
208	0x3cb4cada	0.022069383
209	0x3e0b41bf	0.13599299
210	0x3e806268	0.25075078
211	0xbdad85db	-0.084727965
212	0xbe4aa266	-0.19788513
213	0xbef6dc8a	-0.48215133
214	0x3e98ea34	0.29866183
215	0x3e95edf6	0.29283112
216	0xbe8224ac	-0.25418603
217	0xbeadf3a2	-0.3397494
218	0xbe77c48d	-0.24196072
219	0xbf178d48	-0.59199953
220	0x3e56e6b6	0.20986447
221	0x3d62d156	0.05537542
222	0xbecf260e	-0.4045872
223	0xbe142980	-0.14468956
224	0x3e054470	0.13014388
225	0x3be1c20a	0.0068895863
226	0x3dcade1b	0.099056445
227	0x3dd23791	0.10264505
228	0x3ecc40bc	0.39893138
229	0x3da6a2eb	0.08136543
230	0x3eafe1fc	0.343521
231	0xbec37129	-0.38172272
232	0x3d82dd1a	0.06389828
233	0xbae611ad	-0.0017552875
234	0x3e641472	0.22273424
235	0xbdb08acb	-0.08620223
236	0x3e14af4a	0.14519992
237	0xbe8bf250	-0.27333307
238	0x3d54b675	0.051931817
239	0xbd2192bd	-0.03944658
240	0xbecdaaf8	-0.401695
241	0xbea70d55	-0.3262736
242	0x3d106d1d	0.03526031
243	0xbdc7446b	-0.097298466
244	0x3e3c02bb	0.18360417
245	0xbe968bb4	-0.2940346
246	0xbe057540	-0.13033009
247	0xbd5bf6d1	-0.05370218
248	0xbdcf8f92	-0.10134806
249	0xbd62977b	-0.055320244
250	0x3e2cdfb8	0.16882217
251	0xbb8bfd35	-0.004272128
252	0xbcec4012	-0.028839145
253	0x3f18edcd	0.59737855
254	0xbdd17b92	-0.10228647
255	0x3e1bd608	0.15218365

context_transformer_0/ffn_layer_2/intermediate_dense/einsum/Einsum;context_transformer_0/ffn_layer_2/intermediate_dense/Relu;context_transformer_0/ffn_layer_2/intermediate_dense/add f4 [32]
0	0xbdf14d3b	-0.11782309
1	0xbdee7001	-0.11642457
2	0xbe867657	-0.2626216
3	0xbe795f1f	-0.24352692
4	0xbdaf7059	-0.085663505
5	0xbda6e4ff	-0.08149146
6	0xbe4fbb2d	-0.20286246
7	0xbea3d3aa	-0.31997424
8	0xbe173115	-0.14764817
9	0xbdc0fb51	-0.09422935
10	0xbc2dfd3e	-0.01061946
11	0x3dee3b2e	0.116323814
12	0xbe022ff0	-0.12713599
13	0xbe0b2296	-0.13587412
14	0xbe0ca310	-0.13734078
15	0xbec12fe8	-0.37731862
16	0xbe2cc44a	-0.16871753
17	0x3c9f3cfe	0.019438263
18	0xbe37add5	-0.17937405
19	0xbe6b29b7	-0.22965132
20	0xbda33a7f	-0.079701416
21	0xbd94cc26	-0.07265501
22	0xbe998bf4	-0.29989588
23	0xbe2f8de2	-0.17143968
24	0xbe1c646e	-0.15272686
25	0xbde0a0fe	-0.10968207
26	0xbe129112	-0.14313152
27	0xbeb9b449	-0.3627036
28	0x3d3b391b	0.045708757
29	0xbde859df	-0.113452666
30	0xbdd7220c	-0.10504541
31	0xbcdeef4f	-0.02721372

context_transformer_0/ffn_layer_1/norm/mul;context_transformer_0/ffn_layer_1/norm/add;context_transformer_0/ffn_layer_2/intermediate_dense/einsum/Einsum;context_transformer_0/ffn_layer_2/intermediate_dense/Relu;context_transformer_0/ffn_layer_2/intermediate_dense/add f4 [32, 32]
0	0xbc064fa2	-0.008197697
1	0x3e899e72	0.26878697
2	0x3d9c7f3b	0.07641455
3	0x3b116128	0.0022183154
4	0x3dc6f88b	0.097153746
5	0x3e11385f	0.1418166
6	0x3e3ed258	0.18634927
7	0xbe84a7a9	-0.25909165
8	0x3cfd3d53	0.03091303
9	0x3d628e93	0.05531175
10	0x3c8ca80b	0.017169973
11	0x3d12074e	0.035651498
12	0x3d9215f9	0.07133097
13	0xbdca9694	-0.09892002
14	0x3e2ae37c	0.16688341
15	0xbd807029	-0.06271393
16	0xbf0afc30	-0.5429106
17	0x3dc753d9	0.097327895
18	0xbd4200c4	-0.04736401
19	0xbda97d49	-0.08275849
20	0x3d254baf	0.04035538
21	0xbd8f6557	-0.07001751
22	0xbca8723b	-0.020562282
23	0x3ebc9b98	0.3683746
24	0xbea1e5c7	-0.3162062
25	0xbc0d81ae	-0.008636875
26	0x3e60cd66	0.21953353
27	0x3d9ceea1	0.07662702
28	0xbdf4b714	-0.11948982
29	0x3dd5106a	0.10403521
30	0xbe1763c6	-0.14784154
31	0x3e957698	0.29192042
32	0x3da3d9a3	0.08000495
33	0xbe179ec5	-0.1480666
34	0x3e82c328	0.25539517
35	0x3e1cd278	0.15314662
36	0xbe4ae11a	-0.19812432
37	0xbe6c2e24	-0.23064476
38	0xbd9c2669	-0.07624514
39	0x3ce34575	0.02774308
40	0x3e1396a1	0.14412929
41	0x3d48147d	0.048847664
42	0x3d94f6ac	0.072736114
43	0xbddf9741	-0.10917521
44	0x3e42924e	0.19001123
45	0xbe0aa002	-0.135376
46	0xbdb9b1bc	-0.09067103
47	0xbce7140b	-0.0282078
48	0x3e0db072	0.1383684
49	0xbd442fae	-0.047897033
50	0xbd863ae3	-0.065542005
51	0x3d7000ba	0.058594443
52	0xbdf80336	-0.121099874
53	0x3da49584	0.0803633
54	0x3db41dc1	0.087947376
55	0xbd2d899f	-0.042367574
56	0x3e49b00b	0.19696061
57	0x3d226def	0.039655622
58	0x3d9651b9	0.07339806
59	0x3e5dbba2	0.21653607
60	0xbdcaa81e	-0.09895347
61	0x3da00ec6	0.07815318
62	0x3d77225c	0.060335502
63	0xbd42e4a5	-0.047581334
64	0x3e4d5b47	0.20054351
65	0xbdbc466e	-0.09193121
66	0x3c11bb18	0.008894704
67	0xbdb9e6dd	-0.09077237
68	0xbd1d9229	-0.038469467
69	0xbe554046	-0.208253
70	0x3d0c1043	0.034195196
71	0xbb979a69	-0.0046265614
72	0xbbb3caab	-0.0054868064
73	0x3e9a0e8c	0.30089223
74	0x3f249810	0.6429453
75	0xbea466b6	-0.32109612
76	0xba3ab35a	-0.00071220624
77	0x3d83c147	0.06433349
78	0xbf1c60cf	-0.6108522
79	0x3daf5d2a	0.085626915
80	0x3cbc496a	0.022984225
81	0xbe562911	-0.20914103
82	0xbc7b7c86	-0.015349513
83	0x3e129c0d	0.14317341
84	0x3d37cad1	0.044871155
85	0x3d1a1083	0.037613403
86	0xbe190f65	-0.14947279
87	0x3dea4500	0.11438942
88	0xbd11e5d0	-0.035619557
89	0x3ce718a4	0.028209992
90	0x3d89eef1	0.067350276
91	0xbde41984	-0.11137679
92	0xbe4da58d	-0.20082684
93	0x3d71756e	0.05894988
94	0x3d99046f	0.07471549
95	0x3cb0c53b	0.021578422
96	0x3dbf1253	0.09329667
97	0x3d95ff2c	0.07324061
98	0x3a65c311	0.0008764724
99	0xbe9e1d41	-0.30881694
100	0xbdae87ab	-0.0852197
101	0x3d81f11b	0.06344815
102	0x3e62f2f1	0.22162987
103	0x3e97a149	0.29615238
104	0xbf04238f	-0.5161676
105	0x3e599fa2	0.21252301
106	0x3d60e4fa	0.05490587
107	0x3d1f1bad	0.038844753
108	0x3d828135	0.063723005
109	0x3d050f5e	0.03248536
110	0xbe367a12	-0.17820004
111	0x3c2ca985	0.0105384635
112	0xbe401261	-0.18757011
113	0x3e3323dc	0.17494148
114	0xbddd4e69	-0.10805971
115	0xbca149d9	-0.019688534
116	0x3da727e5	0.08161906
117	0xbda6f393	-0.08151927
118	0xbe478cc6	-0.19487295
119	0x3e2a388e	0.16623136
120	0xbd8f197b	-0.06987282
121	0x3e96e462	0.29471117
122	0xbdba0d76	-0.09084599
123	0xbc57ffc3	-0.013183537
124	0xbd1f56fd	-0.038901318
125	0xbe2104f6	-0.15724549
126	0x3df644b7	0.12024825
127	0x3d37a3f9	0.04483411
128	0x3cba7276	0.022759657
129	0xbdada1da	-0.08478136
130	0x3cb11df0	0.02162072
131	0xbed0f52b	-0.40812048
132	0x3d791b79	0.060817216
133	0x3ecf3f79	0.40478113
134	0xbcab41db	-0.020905426
135	0x3ba3e77a	0.0050019594
136	0x3cf94380	0.030427694
137	0x3cf40409	0.02978708
138	0x3d7f42d2	0.062319584
139	0xb8b5fdd0	-8.678029e-05
140	0x3e17e8d9	0.14834918
141	0x3d64589d	0.05574857
142	0xbe2834af	-0.16426347
143	0xbd874648	-0.06605202
144	0xbe2d0b83	-0.16898923
145	0x3ebb3a4f	0.36567923
146	0xbe2f413c	-0.17114729
147	0xbd357daf	-0.044309314
148	0x3d0b4bf6	0.03400799
149	0xbd2793dc	-0.040912494
150	0xbda4487a	-0.08021636
151	0xbd4e8d1f	-0.050427552
152	0xbcab5fef	-0.020919768
153	0x3dd9af0c	0.10629091
154	0xbe1b6400	-0.15174866
155	0x3dde29ec	0.1084784
156	0xbc9121d7	-0.017716331
157	0x3d44676b	0.04795019
158	0xbcc0f2cb	-0.023553273
159	0xbdf621a4	-0.12018135
160	0x3e45151b	0.19246332
161	0x3d86da51	0.06584609
162	0x3e7e1fbd	0.24816795
163	0x3c639be1	0.013892145
164	0xbdd01765	-0.10160712
165	0xbe4da60e	-0.20082876
166	0xbd5b9387	-0.05360749
167	0x3e269bf0	0.16270423
168	0xbe029abc	-0.12754339
169	0x3e0b5639	0.1360711
170	0xbdfd282c	-0.12361178
171	0x3e26c8d4	0.16287547
172	0x3da6985e	0.081345305
173	0xbebcaa6d	-0.36848775
174	0xbec2ee27	-0.3807232
175	0x3cbc121d	0.022957856
176	0xbd14e755	-0.036353428
177	0x3d8e5699	0.06950111
178	0xbd3a4c37	-0.04548284
179	0xbe1b21b2	-0.15149572
180	0xbe497825	-0.19674738
181	0xbc8987d5	-0.016788403
182	0x3d15d9ad	0.036584545
183	0xbd50f705	-0.051016826
184	0x3d8867c5	0.066604175
185	0x3d30933a	0.043109156
186	0x3de63b0b	0.1124173
187	0x3e4c7be0	0.1996913
188	0xbd0df879	-0.03466079
189	0xbe363270	-0.17792678
190	0x3e54a3da	0.2076563
191	0x3df2c533	0.11854019
192	0x3e7fe100	0.24988174
193	0x3d994667	0.07484131
194	0xbe381881	-0.17978097
195	0xbe36d77e	-0.17855641
196	0xbdb7b141	-0.089693554
197	0x3da6680b	0.08125313
198	0x3c35db16	0.011099597
199	0x3e0e2295	0.1388038
200	0xbeaf05c5	-0.3418409
201	0x3ee9a986	0.4563715
202	0x3ea01344	0.31264699
203	0xbe1211b2	-0.14264563
204	0x3da58324	0.08081654
205	0x3d6ea2cb	0.05826072
206	0x38d4d1da	0.00010148036
207	0xbd4d3dc2	-0.050107725
208	0x3d08f45a	0.033436157
209	0x3d67e9a4	0.0566193
210	0x3c8c8c36	0.017156702
211	0x3e2b5a97	0.16733776
212	0x3e41ae35	0.18914111
213	0xbdc09f45	-0.09405378
214	0xbd0c1936	-0.03420373
215	0x3ebe1f64	0.37133324
216	0x3e10b31e	0.14130828
217	0x3d1a3144	0.03764464
218	0xbcbbf227	-0.022942616
219	0xbe467956	-0.19382223
220	0x3e26faad	0.16306563
221	0xbbba413e	-0.005684047
222	0x3d0d82ba	0.0345485
223	0x3d77bd9a	0.060483553
224	0x3cfa6dad	0.030569876
225	0xbcbb7851	-0.02288452
226	0xbd94e241	-0.07269717
227	0xbe678583	-0.22609524
228	0x3e5120b3	0.2042263
229	0x3dc91621	0.09818674
230	0x3e3647d5	0.17800839
231	0xbd9de8df	-0.07710432
232	0xbcd97475	-0.026544789
233	0x3d7a9951	0.06118137
234	0x3d9f588a	0.07780559
235	0xbe55efcb	-0.20892255
236	0x3cbbdfa3	0.022933787
237	0xbe0e1726	-0.13876018
238	0x3d5c0d78	0.053723782
239	0xbdb1d89b	-0.08683892
240	0xbe847c2b	-0.25875983
241	0x3dae0629	0.08497269
242	0xbcf48b9f	-0.029851733
243	0x3d01dd74	0.031705335
244	0x3de4405c	0.11145088
245	0x3e1227d5	0.14273007
246	0xbe899a72	-0.26875645
247	0xbe9e2584	-0.30887997
248	0x3e162c92	0.1466544
249	0x3dee9fd2	0.11651577
250	0xbe072af6	-0.13199982
251	0xbe94aeef	-0.29039714
252	0x3e25a947	0.16177855
253	0xbea5b462	-0.32364184
254	0x3e324c0b	0.1741182
255	0x3dc430ef	0.09579646

context_transformer_0/ffn_layer_3/intermediate_dense/einsum/Einsum;context_transformer_0/ffn_layer_3/intermediate_dense/Relu;context_transformer_0/ffn_layer_3/intermediate_dense/add f4 [32]
0	0xbe876071	-0.26440766
1	0xbd4cd35d	-0.05000626
2	0xbd964bcf	-0.07338678
3	0xbe90fcbd	-0.28317824
4	0xbac65ef0	-0.0015134495
5	0xbd9340c7	-0.0719009
6	0xbe791722	-0.2432523
7	0xbe2ccc60	-0.16874838
8	0xbea1ca4d	-0.31599656
9	0xbe9d7c3d	-0.3075885
10	0xbe040cf6	-0.12895569
11	0xbe69e4ad	-0.22841139
12	0xbe67ad93	-0.22624807
13	0x3dd4d4a1	0.10392118
14	0xbe3a64e9	-0.18202557
15	0xbe5c078d	-0.21487255
16	0x3c86058e	0.01636007
17	0xbe1fcbd8	-0.15605104
18	0xbe42abfd	-0.19010921
19	0xbe09a069	-0.13440098
20	0xbe382a5c	-0.17984909
21	0xbcb6ed8d	-0.02233007
22	0xbd55f3da	-0.052234508
23	0xbdc3ca8d	-0.09560118
24	0xbe97a384	-0.2961694
25	0xbea0eaeb	-0.31429228
26	0xbe835f7e	-0.25658792
27	0xbe6522cc	-0.22376555
28	0x3ce5049f	0.027956305
29	0x3d316bf4	0.043315843
30	0xbdcc2347	-0.09967666
31	0xbe7833cc	-0.24238509
